{"class_name": "Sequential", "config": [{"class_name": "Reshape", "config": {"batch_input_shape": [null, 16, 8], "name": "reshape_1", "trainable": true, "input_dtype": "float32", "target_shape": [1, 16, 8]}}, {"class_name": "Convolution2D", "config": {"b_constraint": null, "W_regularizer": null, "nb_filter": 30, "subsample": [1, 1], "activity_regularizer": null, "border_mode": "same", "nb_row": 3, "init": "glorot_uniform", "nb_col": 3, "trainable": true, "bias": true, "b_regularizer": null, "activation": "relu", "name": "convolution2d_1", "dim_ordering": "th", "W_constraint": null}}, {"class_name": "MaxPooling2D", "config": {"pool_size": [2, 2], "trainable": true, "name": "maxpooling2d_1", "border_mode": "valid", "dim_ordering": "th", "strides": [2, 2]}}, {"class_name": "Convolution2D", "config": {"b_constraint": null, "W_regularizer": null, "nb_filter": 50, "subsample": [1, 1], "activity_regularizer": null, "border_mode": "same", "nb_row": 3, "init": "glorot_uniform", "nb_col": 3, "trainable": true, "bias": true, "b_regularizer": null, "activation": "relu", "name": "convolution2d_2", "dim_ordering": "th", "W_constraint": null}}, {"class_name": "MaxPooling2D", "config": {"pool_size": [2, 2], "trainable": true, "name": "maxpooling2d_2", "border_mode": "valid", "dim_ordering": "th", "strides": [2, 2]}}, {"class_name": "Dropout", "config": {"name": "dropout_1", "trainable": true, "p": 0.2}}, {"class_name": "Flatten", "config": {"name": "flatten_1", "trainable": true}}, {"class_name": "Dense", "config": {"output_dim": 400, "b_constraint": null, "W_regularizer": null, "b_regularizer": null, "init": "glorot_uniform", "W_constraint": null, "trainable": true, "input_dim": 400, "bias": true, "activity_regularizer": null, "activation": "relu", "name": "dense_1"}}, {"class_name": "Dropout", "config": {"name": "dropout_2", "trainable": true, "p": 0.2}}, {"class_name": "Dense", "config": {"output_dim": 200, "b_constraint": null, "W_regularizer": null, "b_regularizer": null, "init": "glorot_uniform", "W_constraint": null, "trainable": true, "input_dim": 400, "bias": true, "activity_regularizer": null, "activation": "relu", "name": "dense_2"}}, {"class_name": "Dense", "config": {"output_dim": 26, "b_constraint": null, "W_regularizer": null, "b_regularizer": null, "init": "glorot_uniform", "W_constraint": null, "trainable": true, "input_dim": 200, "bias": true, "activity_regularizer": null, "activation": "softmax", "name": "dense_3"}}], "keras_version": "1.2.2"}